anemia_diagnosis.tflite (tflite, 3032 bytes, 5 tensors)

arith.constant f4 [1, 8]
00000000: 0838 5bbf 8eda a2bf 2aa2 88bf dc8a 6ebe
00000010: 7cd8 743f 2d99 533f 3af5 223f 22c5 8d3f
-0.8563237 -1.2722948 -1.0674489 -0.23295158 0.9564283 0.826556 0.63655436 1.1075785

arith.constant1 f4 [8, 16]
00000000: 0062 f6bc f946 ab3e 53cb f13d bc49 b53d
00000010: 7b3e 7bbf e25e e0be db18 61bf 6b47 323f
00000020: f185 0b3e d177 44bf c95d 8f3e 8154 1bbf
00000030: e824 b33e 07df 543f 9514 fc3e 0994 fdbd
00000040: 8024 30bd b6d8 603e 0ce8 adbe f500 ebbe
00000050: 2fe1 0dbf ddcb 3d3e a4d9 75bf 0f5e 4f3f
00000060: 1869 34bf 594d 49bf ab99 783f 0628 2fbf
00000070: c0f5 cdbd 4722 383f 443d 12be 63ba 9f3f
00000080: 104d b53d 7f2d bb3c 48a1 4d3e 5a00 b2bd
00000090: 0d40 0dbf bc7d ec3e 1728 dbbe d0ac ad3e
000000a0: 4ddc 4d3d 7452 06be 503f 1b3d 07b7 82bf
000000b0: 80da 763c 59ff 7e3f b514 31be 0403 713f
000000c0: 189f 58be 0046 5f3c 5844 0d3e 20d7 aabe
000000d0: 30e3 f9be dc8b ddbe d0ad 803e d889 4ebe
000000e0: 68fa c4be c893 383e 8017 82bd 1c56 b43e
000000f0: 202f 81be 60c5 33be b8ec 6cbe dc86 fcbe
00000100: c029 62bd 5896 53be 2c80 813e 35b3 853f
00000110: 1306 433f 7181 823e 18a1 973f 44d1 43be
00000120: 0760 263f 3a40 193f 806a 703e dc2a 913e
00000130: 2494 e4be 29ff 36bf 21ec a23e ca4f 9fbe
00000140: 0027 a53c 29b9 833e 7e71 eebd 7d30 af3e
00000150: bd49 883f bced 2e3c 8b07 be3e 2a0f 71bf
00000160: 59e0 373f de47 bd3e ad54 163d 2efd 4d3f
00000170: 28be 6e3e 4c96 a5bd f430 a2bd d9dd 983d
00000180: 60ae 253e 941e f7be 907b 9ebe 04f7 88be
00000190: 4049 bbbe 78d6 17be 3c46 84be f04a 80be
000001a0: 80e4 603c cc7b aabe 400d 883d f0bf ba3d
000001b0: f409 84be f831 8ebe 6862 fcbe b43a 8dbe
000001c0: 7052 62be 4ef8 df3e 2a4e b43e b57f 193f
000001d0: f56d 403f 71aa 9dbe 88ae 8c3f 3782 21bf
000001e0: 02d7 313e d268 813f dca8 0dbf 3ebb 0f3f
000001f0: 400a c43d 6a7c 13bf c4c0 f63d b500 c73d
-0.030076027 0.33452585 0.11806359 0.08851954 -0.9814221 -0.4382239 -0.8792855 0.69640225
0.13625313 -0.76745325 0.2800124 -0.6067582 0.34989095 0.8315281 0.49234453 -0.12381751
-0.04300356 0.21957669 -0.339661 -0.45899168 -0.5542173 0.18534799 -0.9603522 0.810029
-0.7047286 -0.7863365 0.9710948 -0.68420446 -0.10056639 0.71927303 -0.14281183 1.2478756
0.08852589 0.022848843 0.20081055 -0.08691473 -0.5517586 0.46189678 -0.42804024 0.33920908
0.050258923 -0.13117391 0.037902176 -1.0212106 0.015066743 0.9960838 -0.17293055 0.94145226
-0.2115444 0.013627529 0.13795602 -0.33367252 -0.48806143 -0.43270767 0.25132608 -0.2016977
-0.38472295 0.18025124 -0.063521385 0.35221946 -0.25231266 -0.17555761 -0.23137176 -0.4932164
-0.055215597 -0.2066282 0.252931 1.0445315 0.76181144 0.2548938 1.1846037 -0.19122797
0.64990276 0.59863627 0.23478127 0.28353012 -0.44644272 -0.71483094 0.31820777 -0.31115562
0.020160198 0.25727203 -0.11642741 0.3421668 1.0647503 0.0106767975 0.3711513 -0.94163764
0.718267 0.36968893 0.036701847 0.80464447 0.23314726 -0.080853075 -0.07919493 0.07464189
0.161798 -0.48265517 -0.30953646 -0.26750958 -0.36579323 -0.14827907 -0.25834835 -0.25057173
0.013726354 -0.33297575 0.06643152 0.091186404 -0.25788844 -0.27772498 -0.49293828 -0.2758385
-0.2210176 0.4374413 0.35215884 0.5996049 0.7516778 -0.307941 1.0990763 -0.6308932
0.17367175 1.0110114 -0.55335784 0.56145084 0.095722675 -0.57611716 0.12048486 0.09716932

sequential_1/dense_1_2/BiasAdd/ReadVariableOp f4 [8]
00000000: 5e55 7e3c 3fe3 593e cfe6 2a3e 0000 0000
00000010: 918f 263e 625b 933d 0000 0000 f73d 7d3e
0.015523283 0.21278094 0.16689609 0.0 0.16265704 0.07195164 0.0 0.24730669

sequential_1/dense_1/BiasAdd/ReadVariableOp f4 [16]
00000000: 0000 0000 05c1 b73e b50a babb de6e 8f3e
00000010: 4c35 c83e a406 63bd 1e37 7b3e 7ce3 503e
00000020: 1c8c aa3d f8f1 943e f8c5 0f3e 5f5b 0d3e
00000030: 0000 0000 740d ecbd 5b0b e63d 9288 16bd
0.0 0.3588945 -0.005677546 0.28014272 0.39103162 -0.055426255 0.24532744 0.20399278
0.08327505 0.29090858 0.14040363 0.13804387 0.0 -0.115260035 0.11232635 -0.036751337

sequential_1/dense_1/MatMul f4 [16, 5]
00000000: 9048 9d3d 0600 5cbe 70cf b2be 803a b7be
00000010: 8086 aabe 064a 0a3f 90dd 4dba fd1c 643f
00000020: 7efa 003f d951 823e 24e3 8c3e f31f dabe
00000030: 01f2 f6bd 6bb1 29be 88f5 12be 0ac8 133f
00000040: d853 a03b fb6a 083f ba2a 103f f2a8 70bf
00000050: bcfd ba3e bc9a 0c3e 7f53 6c3f 43d8 c03d
00000060: 51be 9dbf 96a0 693e d4fc 13bf 85ff cabd
00000070: 0463 c83d e83d f3be c63a c8be 8c91 0d3f
00000080: 91e1 0a3e 0256 96bd 304c 14bf 1639 273f
00000090: 2e6b 86bc e00f 0cbf 670e 723e afa2 1f3f
000000a0: 57db d0be 4a09 b83e a3da 343c f4a8 0bbf
000000b0: 5113 8bbd 54a0 d03e b295 003f 25f9 013f
000000c0: acd4 67be 1958 54bf 5384 99be 08bb 1fbe
000000d0: 3e42 f33d 9087 c53e c1bd 6b3f dbca 84bd
000000e0: 3991 be3d 825e bb3e a740 8f3e daef 10bf
000000f0: 2cf7 08be 084a 463e ae41 3cbe 9b0b b4be
00000100: a4d2 f2be f03f 133f 0235 a43e 0e24 093e
00000110: 2cf8 81be 595c a43f ce59 e6be 4c19 f0bd
00000120: f8dc 063f 2dcd cf3e f10e 51bd b05c c03e
00000130: 963a 4f3e bbbf f6be de93 8cbe 107a f53d
0.07679856 -0.21484384 -0.34923887 -0.3578682 -0.3330574 0.540192 -0.0007853145 0.8910673
0.5038222 0.2545307 0.27517045 -0.426025 -0.12057877 -0.16571586 -0.14351475 0.5772711
0.0048928075 0.5328824 0.56315196 -0.9400779 0.3652171 0.13730901 0.92314905 0.09416249
-1.2323705 0.22815165 -0.5780766 -0.09912018 0.09784511 -0.47508168 -0.3910734 0.5530021
0.1356261 -0.073406234 -0.5792875 0.6532148 -0.01640853 -0.54711723 0.23638307 0.6235761
-0.40792343 0.35944587 0.011038455 -0.54554677 -0.06790794 0.4074732 0.50228417 0.5077079
-0.22639722 -0.82946926 -0.29983768 -0.1559869 0.11877869 0.38579988 0.92086416 -0.06484004
0.09305043 0.3659554 0.27979013 -0.56615984 -0.13375539 0.19364178 -0.1838443 -0.35165104
-0.4742633 0.57519436 0.32071692 0.1339266 -0.25384653 1.2840682 -0.4499039 -0.11723575
0.5268092 0.40586224 -0.05103964 0.37570715 0.20237193 -0.48193154 -0.27456564 0.11986172
